old_stuff/ai1.pt (torch, 2848 bytes, 5 tensors)

i2h.weight f4 [8, 5]
00000000: e835 a2be 0b5b 933e b29c 9a3e 16a8 78be
00000010: e953 b9bc dfd3 8abe 30df 933e 4c65 673e
00000020: 3c5a 2a3e fd76 b63e 805a 9b3e d6d0 423e
00000030: 06cd a23e cb6e 45bd 4102 8abe 07f0 06be
00000040: 93e4 7f3e b80d a9bd 0ae3 c6bd 971f cabe
00000050: 7e20 673e 84ce 983e 2d1e b1bd 6c99 bcbe
00000060: 4913 2f3e e0a4 103b f2bf 143e 805f da3d
00000070: a0bd f1bd 75aa 00be e380 16bd e283 b8be
00000080: 16de 9d3e 0010 4637 6450 95bd 7d9a 943e
00000090: edb1 953e 8e03 043c 865f 87be c4bc 03be
-0.31681752 0.28780398 0.30197674 -0.2428287 -0.02262302 -0.2711477 0.28881216 0.22597235
0.16635984 0.35637656 0.30342484 0.19024977 0.31797045 -0.048201364 -0.26954845 -0.131775
0.24989538 -0.0825457 -0.09711273 -0.39477226 0.22570989 0.2984506 -0.08648334 -0.36835802
0.170972 0.002207093 0.14526346 0.106627464 -0.11803746 -0.12565024 -0.03674401 -0.3603812
0.308335 1.1805445e-05 -0.07290724 0.29024115 0.2923731 0.008057488 -0.26440066 -0.12864977

i2h.bias f4 [8]
00000000: 538b b3be ee0b 633d 769d 1c3e 70ef b43e
00000010: 8ad5 483e c40a 65be 2bf0 8abd 8c23 a0be
-0.35067233 0.0554313 0.15294442 0.35338926 0.19612709 -0.22367388 -0.0678409 -0.3127712

h2h.weight f4 [8, 8]
00000000: e4a0 64be af1a 30be 58b2 12bd 560c 9ebd
00000010: 8080 a83c f5b9 a6bd ca48 023e 8635 8abe
00000020: 6dab 813e 86c3 dfbd 92c2 873e b8a9 34bd
00000030: 3e57 a7bc 5161 663e 520a 8fbd 8387 5b3e
00000040: 5025 e03b ea14 f0bc 332f 0cbe 92e1 88be
00000050: ad54 873e 5a93 493e b074 0e3d eb55 27be
00000060: a476 33bd a754 4dbe 98b4 413e 4f51 173e
00000070: 3633 85be 34bc e73d e21f 7c3d 4e2d 87bd
00000080: 6ee7 98bd 0faa 3fbd 189c ba3d 7f1d 8bbe
00000090: e697 8bbe 3b5a 8ebe 5778 9c3d 6cae 0c3b
000000a0: ec8b b1bc f671 f1bd 2724 a8bc bedc 85be
000000b0: 7e97 333e 9272 1e3e 61c2 8abd a065 b83d
000000c0: bae9 cdbd 2f1a 5a3e aaff 82be 77a2 80bd
000000d0: be01 36be a0c2 62be 29cb 873e 88d4 62be
000000e0: fdf1 a23e a6af 873e 996c 8cbc 48e7 dcbd
000000f0: be4a e83d 09eb 873e 337e bd3d e711 8e3e
-0.22327 -0.17197679 -0.035814613 -0.07717197 0.020569086 -0.08140937 0.1272308 -0.2699396
0.253261 -0.10925965 0.26515633 -0.04410717 -0.020427343 0.22498061 -0.0698439 0.21438412
0.0068403855 -0.029306848 -0.1368988 -0.26734596 0.2643179 0.19685116 0.03477925 -0.16341369
-0.043814316 -0.20051824 0.18916547 0.1477711 -0.26015633 0.11315194 0.061553843 -0.06600438
-0.07466017 -0.04679304 0.09111804 -0.2717094 -0.27264327 -0.27803215 0.076401405 0.0021466268
-0.021673165 -0.117893144 -0.020525051 -0.26144975 0.17538258 0.15473393 -0.06775356 0.090037584
-0.100543454 0.21299051 -0.2558568 -0.06280988 -0.17774102 -0.22144556 0.26522186 -0.22151387
0.31825247 0.26501197 -0.017141627 -0.10786301 0.11342381 0.26546505 0.09252586 0.27748033

h2h.bias f4 [8]
00000000: 899a 123d 085b 7e3e 37c4 823e ee2e dbbd
00000010: b6e1 6dbe 842f 8d3e ed2f 1f3e 176e ac3e
0.035791907 0.24839413 0.25540325 -0.107023105 -0.23230633 0.27575314 0.15545626 0.33677742

h2o.weight f4 [1, 8]
00000000: 67d9 5fbe e837 90be de09 653e cd4c 4abe
00000010: 5a7c 71bc 6d64 72be b414 8f3e 159e 483d
-0.21860276 -0.28167653 0.22367045 -0.1975586 -0.01473912 -0.23671122 0.27945483 0.048978884
