old_stuff/ai2.pt (torch, 2848 bytes, 5 tensors)

i2h.weight f4 [8, 5]
-0.08929752 -0.0877335 0.062879495 -0.007770546 0.14375366 0.29501286 0.06185004 -0.2966599
-0.007879729 0.070392706 0.09313625 0.09159879 0.008416581 0.014331336 -0.09555949 0.04911156
-0.121016085 -0.30002195 0.36019522 0.37541783 -0.40763593 -0.01763119 0.13091917 -0.022123793
-0.27046967 -0.16346647 -0.39187023 0.4087707 -0.24401255 -0.2756215 -0.3934394 -0.07868331
-0.32892185 -0.0067264833 0.25276965 0.16876169 -0.25294828 0.37125826 -0.07631253 -0.32292148
00000000: 9ee1 b6bd 9fad b3bd f7c6 803d 10a0 febb
00000010: 2934 133e ed0b 973e 7856 7d3d cee3 97be
00000020: fb19 01bc 0d2a 903d 38be be3d 2598 bb3d
00000030: b3e5 093c fbcd 6a3c b2b4 c3bd 3429 493d
00000040: 48d7 f7bd 7a9c 99be 826b b83e c436 c03e
00000050: a8b5 d0be 496f 90bc ad0f 063e f53c b5bc
00000060: 007b 8abe c163 27be 37a3 c8be 654a d13e
00000070: 6dde 79be 431e 8dbe e470 c9be b724 a1bd
00000080: 7268 a8be d569 dcbb 066b 813e ddcf 2c3e
00000090: 7082 81be 9015 be3e be49 9cbd f755 a5be

i2h.bias f4 [8]
0.17318717 -0.07832393 -0.41175815 0.43446353 0.09369357 0.27698758 0.22006325 0.077620104
00000000: fa57 313e 4c68 a0bd f7d1 d2be 0172 de3e
00000010: 6ae2 bf3d 51d1 8d3e 4358 613e 4af7 9e3d

h2h.weight f4 [8, 8]
-0.14008428 0.22987944 0.29875687 -0.057658236 0.124790154 0.12970823 0.012238896 -0.29919294
0.33265772 0.1778385 -0.24053982 0.06318364 0.29742402 -0.26383004 -0.09798628 -0.23179936
-0.1429729 0.11561479 -0.15429123 0.005306415 0.12127591 -0.05520175 -0.25078043 -0.036489602
-0.15928385 -0.090947084 0.25538528 0.1472672 0.21142688 0.1260351 0.045625903 0.2100491
0.25884524 -0.32234886 0.21797338 -0.018080492 -0.22874755 -0.3111466 -0.3020197 -0.2699812
-0.19891676 0.07289525 -0.115412526 0.25615928 -0.12887752 0.3244348 0.31288803 0.039092887
0.14475465 0.29462972 0.0042602033 -0.086989366 0.20838408 -0.1473436 -0.30366898 -0.34384406
0.2579503 0.27459627 -0.2711315 0.22805558 0.16113305 0.08513958 -0.24291116 -0.35324976
00000000: 4172 0fbe 8465 6b3e a9f6 983e 0b2b 6cbd
00000010: fb91 ff3d 3cd2 043e a785 483c d12f 99be
00000020: 1d52 aa3e 4c1b 363e 1250 76be 6d66 813d
00000030: f647 983e bb14 87be 08ad c8bd d05c 6dbe
00000040: 7d67 12be 72c7 ec3d 85fe 1dbe 6fe1 ad3b
00000050: 815f f83d 3b1b 62bd 4b66 80be 1f76 15bd
00000060: 4e1b 23be 7742 babd dcc1 823e 36cd 163e
00000070: 4a80 583e 580f 013e 3ae2 3a3d 1c17 573e
00000080: 5d87 843e e90a a5be 6a34 5f3e 8a1d 94bc
00000090: cc3c 6abe 9b4e 9fbe 53a2 9abe fa3a 8abe
000000a0: d6b0 4bbe 1b4a 953d 675d ecbd 4f27 833e
000000b0: 78f8 03be 511c a63e dc32 a03e dd1f 203d
000000c0: 903a 143e b5d9 963e 2d99 8b3b 7b27 b2bd
000000d0: a362 553e 3ee1 16be 807a 9bbe 540c b0be
000000e0: 1012 843e e297 8c3e bfd1 8abe 6787 693e
000000f0: 1000 253e a95d ae3d b4bd 78be 27dd b4be

h2h.bias f4 [8]
-0.23860376 0.004298599 0.0070543285 -0.05991971 -0.07636115 0.19157487 0.29183075 -0.12810451
00000000: 8b54 74be 43db 8c3b ff27 e73b 5f6e 75bd
00000010: 3c63 9cbd 342c 443e d76a 953e d42d 03be

h2o.weight f4 [1, 8]
-0.2263424 0.11199007 -0.06448522 -0.20160717 0.05683751 0.34693596 -0.050797276 -0.13315925
00000000: 4dc6 67be 0d5b e53d d410 84bd 1c72 4ebe
00000010: 73ce 683d 97a1 b13e ce10 50bd e65a 08be
